Namespace(batch_size=512, dataset_root='dataset', device=device(type='cuda', index=0), drop_ratio=0.0, early_stop=10, emb_dim=256, epochs=100, graph_pooling='sum', num_layers=5, num_workers=16, output_file=<_io.TextIOWrapper name='saves\\GINGraphPooling\\output' mode='a' encoding='cp936'>, save_dir='saves\\GINGraphPooling', save_test=True, task_name='GINGraphPooling', weight_decay=1e-05)
#Params: 724230
GINGraphPooling(
  (gnn_node): GINNodeEmbedding(
    (atom_encoder): AtomEncoder(
      (atom_embedding_list): ModuleList(
        (0): Embedding(119, 256)
        (1): Embedding(4, 256)
        (2): Embedding(12, 256)
        (3): Embedding(12, 256)
        (4): Embedding(10, 256)
        (5): Embedding(6, 256)
        (6): Embedding(6, 256)
        (7): Embedding(2, 256)
        (8): Embedding(2, 256)
      )
    )
    (convs): ModuleList(
      (0): GINConv(
        (mlp): Sequential(
          (0): Linear(in_features=256, out_features=256, bias=True)
          (1): BatchNorm1d(256, eps=1e-05, momentum=0.1, affine=True, track_running_stats=True)
          (2): ReLU()
          (3): Linear(in_features=256, out_features=256, bias=True)
        )
        (bond_encoder): BondEncoder(
          (bond_embedding_list): ModuleList(
            (0): Embedding(5, 256)
            (1): Embedding(6, 256)
            (2): Embedding(2, 256)
          )
        )
      )
      (1): GINConv(
        (mlp): Sequential(
          (0): Linear(in_features=256, out_features=256, bias=True)
          (1): BatchNorm1d(256, eps=1e-05, momentum=0.1, affine=True, track_running_stats=True)
          (2): ReLU()
          (3): Linear(in_features=256, out_features=256, bias=True)
        )
        (bond_encoder): BondEncoder(
          (bond_embedding_list): ModuleList(
            (0): Embedding(5, 256)
            (1): Embedding(6, 256)
            (2): Embedding(2, 256)
          )
        )
      )
      (2): GINConv(
        (mlp): Sequential(
          (0): Linear(in_features=256, out_features=256, bias=True)
          (1): BatchNorm1d(256, eps=1e-05, momentum=0.1, affine=True, track_running_stats=True)
          (2): ReLU()
          (3): Linear(in_features=256, out_features=256, bias=True)
        )
        (bond_encoder): BondEncoder(
          (bond_embedding_list): ModuleList(
            (0): Embedding(5, 256)
            (1): Embedding(6, 256)
            (2): Embedding(2, 256)
          )
        )
      )
      (3): GINConv(
        (mlp): Sequential(
          (0): Linear(in_features=256, out_features=256, bias=True)
          (1): BatchNorm1d(256, eps=1e-05, momentum=0.1, affine=True, track_running_stats=True)
          (2): ReLU()
          (3): Linear(in_features=256, out_features=256, bias=True)
        )
        (bond_encoder): BondEncoder(
          (bond_embedding_list): ModuleList(
            (0): Embedding(5, 256)
            (1): Embedding(6, 256)
            (2): Embedding(2, 256)
          )
        )
      )
      (4): GINConv(
        (mlp): Sequential(
          (0): Linear(in_features=256, out_features=256, bias=True)
          (1): BatchNorm1d(256, eps=1e-05, momentum=0.1, affine=True, track_running_stats=True)
          (2): ReLU()
          (3): Linear(in_features=256, out_features=256, bias=True)
        )
        (bond_encoder): BondEncoder(
          (bond_embedding_list): ModuleList(
            (0): Embedding(5, 256)
            (1): Embedding(6, 256)
            (2): Embedding(2, 256)
          )
        )
      )
    )
    (batch_norms): ModuleList(
      (0): BatchNorm1d(256, eps=1e-05, momentum=0.1, affine=True, track_running_stats=True)
      (1): BatchNorm1d(256, eps=1e-05, momentum=0.1, affine=True, track_running_stats=True)
      (2): BatchNorm1d(256, eps=1e-05, momentum=0.1, affine=True, track_running_stats=True)
      (3): BatchNorm1d(256, eps=1e-05, momentum=0.1, affine=True, track_running_stats=True)
      (4): BatchNorm1d(256, eps=1e-05, momentum=0.1, affine=True, track_running_stats=True)
    )
  )
  (graph_pred_linear): Linear(in_features=256, out_features=1, bias=True)
)
=====Epoch 1
Training...
Evaluating...
{'Train': 0.6448646479216733, 'Validation': 0.6645276546478271}
Saving checkpoint...
Predicting on test data...
Saving test submission file...
Best validation MAE so far: 0.6645276546478271
=====Epoch 2
Training...
Evaluating...
{'Train': 0.220832271234614, 'Validation': 0.37957581877708435}
Saving checkpoint...
Predicting on test data...
…
